…
/net/talisker/home/benos/mae117/.conda/envs/tmm/lib/python3.11/site-packages/torch/utils/data/dataloader.py:617: UserWarning: This DataLoader will create 4 worker processes in total. Our suggested max number of worker in current system is 1, which is smaller than what this DataLoader is going to create. Please be aware that excessive worker creation might get DataLoader running slow or even freeze, lower the worker number to avoid potential slowness/freeze if necessary.
  warnings.warn(
                                                                                
before training 5.191973122469897 -0.02757801754429267 -0.025867672174446965 -0.30481776483294265
model
seq2PRINT(
  (dna_cnn_model): DNA_CNN(
    (conv): Conv1dWrapper(
      (conv): Conv1d(4, 1024, kernel_size=(21,), stride=(1,), padding=(10,))
    )
    (activation): ReLU()
  )
  (hidden_layer_model): DilatedCNN(
    (activation): GELU(approximate='none')
    (layers): ModuleList(
      (0): Residual(
        (module): ConvBlockModule(
          (activation): GELU(approximate='none')
          (conv1): Conv1dWrapper(
            (conv): Conv1d(1024, 1024, kernel_size=(3,), stride=(1,), padding=(2,), dilation=(2,), groups=8, bias=False)
          )
          (block1): Sequential(
            (0): BatchNorm1d(1024, eps=1e-05, momentum=0.1, affine=True, track_running_stats=True)
            (1): GELU(approximate='none')
          )
          (conv2): Conv1dWrapper(
            (conv): Conv1d(1024, 1024, kernel_size=(1,), stride=(1,), bias=False)
          )
          (block2): Sequential(
            (0): BatchNorm1d(1024, eps=1e-05, momentum=0.1, affine=True, track_running_stats=True)
            (1): GELU(approximate='none')
          )
        )
      )
      (1): Residual(
        (module): ConvBlockModule(
          (activation): GELU(approximate='none')
          (conv1): Conv1dWrapper(
            (conv): Conv1d(1024, 1024, kernel_size=(3,), stride=(1,), padding=(4,), dilation=(4,), groups=8, bias=False)
          )
          (block1): Sequential(
            (0): BatchNorm1d(1024, eps=1e-05, momentum=0.1, affine=True, track_running_stats=True)
            (1): GELU(approximate='none')
          )
          (conv2): Conv1dWrapper(
            (conv): Conv1d(1024, 1024, kernel_size=(1,), stride=(1,), bias=False)
          )
          (block2): Sequential(
            (0): BatchNorm1d(1024, eps=1e-05, momentum=0.1, affine=True, track_running_stats=True)
            (1): GELU(approximate='none')
          )
        )
      )
      (2): Residual(
        (module): ConvBlockModule(
          (activation): GELU(approximate='none')
          (conv1): Conv1dWrapper(
            (conv): Conv1d(1024, 1024, kernel_size=(3,), stride=(1,), padding=(8,), dilation=(8,), groups=8, bias=False)
          )
          (block1): Sequential(
            (0): BatchNorm1d(1024, eps=1e-05, momentum=0.1, affine=True, track_running_stats=True)
            (1): GELU(approximate='none')
          )
          (conv2): Conv1dWrapper(
            (conv): Conv1d(1024, 1024, kernel_size=(1,), stride=(1,), bias=False)
          )
          (block2): Sequential(
            (0): BatchNorm1d(1024, eps=1e-05, momentum=0.1, affine=True, track_running_stats=True)
            (1): GELU(approximate='none')
          )
        )
      )
      (3): Residual(
        (module): ConvBlockModule(
          (activation): GELU(approximate='none')
          (conv1): Conv1dWrapper(
            (conv): Conv1d(1024, 1024, kernel_size=(3,), stride=(1,), padding=(16,), dilation=(16,), groups=8, bias=False)
          )
          (block1): Sequential(
            (0): BatchNorm1d(1024, eps=1e-05, momentum=0.1, affine=True, track_running_stats=True)
            (1): GELU(approximate='none')
          )
          (conv2): Conv1dWrapper(
            (conv): Conv1d(1024, 1024, kernel_size=(1,), stride=(1,), bias=False)
          )
          (block2): Sequential(
            (0): BatchNorm1d(1024, eps=1e-05, momentum=0.1, affine=True, track_running_stats=True)
            (1): GELU(approximate='none')
          )
        )
      )
      (4): Residual(
        (module): ConvBlockModule(
          (activation): GELU(approximate='none')
          (conv1): Conv1dWrapper(
            (conv): Conv1d(1024, 1024, kernel_size=(3,), stride=(1,), padding=(32,), dilation=(32,), groups=8, bias=False)
          )
          (block1): Sequential(
            (0): BatchNorm1d(1024, eps=1e-05, momentum=0.1, affine=True, track_running_stats=True)
            (1): GELU(approximate='none')
          )
          (conv2): Conv1dWrapper(
            (conv): Conv1d(1024, 1024, kernel_size=(1,), stride=(1,), bias=False)
          )
          (block2): Sequential(
            (0): BatchNorm1d(1024, eps=1e-05, momentum=0.1, affine=True, track_running_stats=True)
            (1): GELU(approximate='none')
          )
        )
      )
      (5): Residual(
        (module): ConvBlockModule(
          (activation): GELU(approximate='none')
          (conv1): Conv1dWrapper(
            (conv): Conv1d(1024, 1024, kernel_size=(3,), stride=(1,), padding=(64,), dilation=(64,), groups=8, bias=False)
          )
          (block1): Sequential(
            (0): BatchNorm1d(1024, eps=1e-05, momentum=0.1, affine=True, track_running_stats=True)
            (1): GELU(approximate='none')
          )
          (conv2): Conv1dWrapper(
            (conv): Conv1d(1024, 1024, kernel_size=(1,), stride=(1,), bias=False)
          )
          (block2): Sequential(
            (0): BatchNorm1d(1024, eps=1e-05, momentum=0.1, affine=True, track_running_stats=True)
            (1): GELU(approximate='none')
          )
        )
      )
      (6): Residual(
        (module): ConvBlockModule(
          (activation): GELU(approximate='none')
          (conv1): Conv1dWrapper(
            (conv): Conv1d(1024, 1024, kernel_size=(3,), stride=(1,), padding=(128,), dilation=(128,), groups=8, bias=False)
          )
          (block1): Sequential(
            (0): BatchNorm1d(1024, eps=1e-05, momentum=0.1, affine=True, track_running_stats=True)
            (1): GELU(approximate='none')
          )
          (conv2): Conv1dWrapper(
            (conv): Conv1d(1024, 1024, kernel_size=(1,), stride=(1,), bias=False)
          )
          (block2): Sequential(
            (0): BatchNorm1d(1024, eps=1e-05, momentum=0.1, affine=True, track_running_stats=True)
            (1): GELU(approximate='none')
          )
        )
      )
      (7): Residual(
        (module): ConvBlockModule(
          (activation): GELU(approximate='none')
          (conv1): Conv1dWrapper(
            (conv): Conv1d(1024, 1024, kernel_size=(3,), stride=(1,), padding=(256,), dilation=(256,), groups=8, bias=False)
          )
          (block1): Sequential(
            (0): BatchNorm1d(1024, eps=1e-05, momentum=0.1, affine=True, track_running_stats=True)
            (1): GELU(approximate='none')
          )
          (conv2): Conv1dWrapper(
            (conv): Conv1d(1024, 1024, kernel_size=(1,), stride=(1,), bias=False)
          )
          (block2): Sequential(
            (0): BatchNorm1d(1024, eps=1e-05, momentum=0.1, affine=True, track_running_stats=True)
            (1): GELU(approximate='none')
          )
        )
      )
    )
  )
  (profile_cnn_model): Footprints_head(
    (conv_layer): Conv1dWrapper(
      (conv): Conv1d(1024, 99, kernel_size=(1,), stride=(1,))
    )
    (linear): Conv1dWrapper(
      (conv): Conv1d(1024, 1, kernel_size=(1,), stride=(1,))
    )
  )
)
total trainable params 11756644
total params 11756644
update after step 100
before training 5.190677807248872 -0.02757990182075233 -0.025868593187263065 -0.3062778064998818
Using amp
trainable params in total 11756644
  warnings.warn(
                                                                                
 - (Training) 1 Loss: 1.78
 - (Validation) 1                         Loss: 1.60043
…
